Creating new model:
GNN(
  (layers): ModuleList(
    (0): GNN_Layer(
      (kernel): GaussianSoftmax()
      (convA): Graph_Convolution(
        (fc): Linear(in_features=12, out_features=32, bias=True)
      )
      (convB): Graph_Convolution(
        (fc): Linear(in_features=12, out_features=32, bias=True)
      )
      (act): ReLU()
    )
    (1): GNN_Layer(
      (convA): Graph_Convolution(
        (fc): Linear(in_features=128, out_features=32, bias=True)
      )
      (convB): Graph_Convolution(
        (fc): Linear(in_features=128, out_features=32, bias=True)
      )
      (act): ReLU()
    )
    (2): GNN_Layer(
      (convA): Graph_Convolution(
        (fc): Linear(in_features=128, out_features=32, bias=True)
      )
      (convB): Graph_Convolution(
        (fc): Linear(in_features=128, out_features=32, bias=True)
      )
      (act): ReLU()
    )
    (3): GNN_Layer(
      (convA): Graph_Convolution(
        (fc): Linear(in_features=128, out_features=32, bias=True)
      )
      (convB): Graph_Convolution(
        (fc): Linear(in_features=128, out_features=32, bias=True)
      )
      (act): ReLU()
    )
    (4): GNN_Layer(
      (convA): Graph_Convolution(
        (fc): Linear(in_features=128, out_features=32, bias=True)
      )
      (convB): Graph_Convolution(
        (fc): Linear(in_features=128, out_features=32, bias=True)
      )
      (act): ReLU()
    )
    (5): GNN_Layer(
      (convA): Graph_Convolution(
        (fc): Linear(in_features=128, out_features=32, bias=True)
      )
      (convB): Graph_Convolution(
        (fc): Linear(in_features=128, out_features=32, bias=True)
      )
      (act): ReLU()
    )
    (6): GNN_Layer(
      (convA): Graph_Convolution(
        (fc): Linear(in_features=128, out_features=32, bias=True)
      )
      (convB): Graph_Convolution(
        (fc): Linear(in_features=128, out_features=32, bias=True)
      )
      (act): ReLU()
    )
    (7): GNN_Layer(
      (convA): Graph_Convolution(
        (fc): Linear(in_features=128, out_features=32, bias=True)
      )
      (convB): Graph_Convolution(
        (fc): Linear(in_features=128, out_features=32, bias=True)
      )
      (act): ReLU()
    )
    (8): GNN_Layer(
      (convA): Graph_Convolution(
        (fc): Linear(in_features=128, out_features=32, bias=True)
      )
      (convB): Graph_Convolution(
        (fc): Linear(in_features=128, out_features=32, bias=True)
      )
      (act): ReLU()
    )
    (9): GNN_Layer(
      (convA): Graph_Convolution(
        (fc): Linear(in_features=128, out_features=32, bias=True)
      )
      (convB): Graph_Convolution(
        (fc): Linear(in_features=128, out_features=32, bias=True)
      )
      (act): ReLU()
    )
  )
  (readout_fc): Linear(in_features=64, out_features=1, bias=True)
  (readout_norm): InstanceNorm1d(1, eps=1e-05, momentum=0.1, affine=False, track_running_stats=False)
  (readout_act): Sigmoid()
)
Initial model saved.
Training on GPU
GPU type:
Tesla V100-SXM2-32GB
Number of GPU: 1
Training on 999680 samples.
Validate on 99968 samples.

Epoch 1
Learning rate: 0.05
Training on /mnt/scratch/lehieu1/training_files/processed/nocuts_multi/train_file_1.pkl
…
